mnist1.ckpt (torch_old, 220624 bytes, 8 tensors)

conv1.weight f4 [10, 1, 5, 5]
0.054600373 -0.13380906 -0.15747848 -0.18341069 0.057987526 -0.016535968 0.13739239 -0.19082792
-0.089461856 -0.07446237 -0.094466925 0.19270064 0.1462674 0.071951285 -0.06377575 0.049256116
0.19123508 0.16727026 0.057991162 0.103312984 -0.042190716 -0.0840204 0.1982119 0.12152372
0.14221717 -0.13693827 -0.121728614 0.023842365 0.075532034 0.11279656 0.046973675 -0.08711498
0.19138609 -0.19690982 0.14410035 0.07325365 -0.14904706 -0.09373138 0.16905738 -0.15415502
0.10372563 -0.1916625 -0.14626344 -0.10308681 -0.09610393 0.020806342 0.09557925 -0.06709683
0.09779422 0.09103827 -0.12910059 0.1483434 -0.10964181 0.16984226 0.028780416 -0.15269431
-0.11045177 -0.15214309 0.10703419 -0.052936524 0.02624166 -0.15501337 0.19560887 0.105951324
0.10564138 0.1382861 0.04452078 -0.19298072 -0.014908269 -0.07635205 -0.1824194 0.16363211
-0.121323064 0.055394903 -0.14340496 -0.091914296 -0.03603001 0.05714585 0.06393893 0.124609396
-0.15673971 -0.099597454 -0.059714645 0.13157447 -0.05051224 -0.05869846 0.12264179 -0.07397452
-0.09316838 -0.048209146 0.12807877 0.0078870505 -0.019613773 0.13172771 0.15938692 0.04536414
-0.18495739 -0.039214894 -0.09550402 0.10703017 0.034264132 0.15339427 -0.09865194 0.03624256
-0.06608203 -0.032611653 -0.08039732 0.061393067 0.1697285 0.01321587 -0.043950155 0.11089237
-0.052424163 0.05779417 -0.07034233 -0.17828754 0.07917769 0.13516857 0.0929492 -0.056621715
0.075947806 -0.09218917 0.028881818 -0.019093439 -0.05977182 -0.18017888 0.18081988 0.14325546
0.13089262 -0.015478447 -0.03423187 0.08020182 -0.12729451 0.040854692 0.047807887 0.09242441
0.013289019 -0.19313505 0.08615874 0.031916544 0.19241478 -0.18576597 0.13144864 -0.08498166
-0.13113788 0.13851686 0.0052865744 -0.1976424 -0.12365403 0.06620948 0.19590212 -0.14084084
0.039066866 0.1364807 0.025659725 0.07319035 -0.051604837 0.012780696 0.10318826 -0.05819848
-0.13061531 -0.07214001 0.015029818 0.03919658 -0.18227947 -0.010879159 -0.1339075 0.049874544
0.0049815923 0.09051357 -0.18834637 -0.07125409 -0.19705403 -0.06522182 0.031501457 0.092096165
0.050360695 -0.16222823 0.06951626 -0.05965182 0.10772525 -0.17210571 -0.030354649 0.17637195
-0.10153153 0.08705197 0.08421196 0.117674336 0.04293509 -0.15718019 -0.19979234 0.06385265
0.09497781 0.1678953 0.004375264 -0.0308021 -0.107303716 0.09470041 0.10215439 -0.05962184
-0.063164875 0.027553871 -0.18166927 -0.13259679 -0.10213146 0.06912522 0.014198512 -0.11778648
0.046574444 0.02765739 -0.17159875 0.14836647 0.05963312 -0.012165144 -0.033651784 0.0050816536
0.16272719 0.05272399 0.16519742 -0.049205348 0.015294597 -0.0023289174 -0.1773579 0.12099196
0.1173379 -0.008297995 -0.013952091 0.0368696 0.0941297 -0.17555387 -0.18270767 0.012925059
0.07372914 0.12190534 0.09154479 0.10051276 0.067340896 -0.15114467 -0.10512247 -0.0010026991
-0.13508585 0.08502366 0.08214466 0.011579439 0.119053945 0.017004132 0.009277612 0.14673139
-0.11967669 -0.06004712
00000000: a4a4 5f3d 3e05 09be 0a42 21be 03d0 3bbe
00000010: 5484 6d3d 7076 87bc 97b0 0c3e 6568 43be
00000020: c737 b7bd ba7f 98bd e077 c1bd 5153 453e
00000030: 1fc7 153e 325b 933d dc9c 82bd c8c0 493d
00000040: 21d3 433e e548 2b3e 2488 6d3d c295 d33d
00000050: 2cd0 2cbd e312 acbd 0ff8 4a3e 6ee1 f83d
00000060: 61a1 113e 8c39 0cbe da4c f9bd 1051 c33c
00000070: 8ab0 9a3d e201 e73d 7867 403d 5769 b2bd
00000080: b7fa 433e baa2 49be 0b8f 133e 0206 963d
00000090: cb9f 18be 3df6 bfbd 611d 2d3e d0da 1dbe
000000a0: 1a6e d43d 2d43 44be 15c6 15be 2d1f d3bd
000000b0: 23d2 c4bd 1072 aa3c 0ebf c33d 106a 89bd
000000c0: 5648 c83d 4672 ba3d f232 04be 55e7 173e
000000d0: e38b e0bd 21eb 2d3e e8c4 eb3c e65b 1cbe
000000e0: 8a34 e2bd 66cb 1bbe be34 db3d f8d3 58bd
000000f0: c0f8 d63c d3bb 1ebe b14d 483e 02fd d83d
00000100: 825a d83d df9a 0d3e 6c5b 363d bd9c 45be
00000110: d041 74bc 775e 9cbd 27cc 3abe 2d8f 273e
00000120: 3a78 f8bd c4e5 623d c0d8 12be 903d bcbd
00000130: 3494 13bd c411 6a3d 6af2 823d 3633 ff3d
00000140: 6080 20be c0f9 cbbd 5897 74bd 75bb 063e
00000150: ece5 4ebd cc6d 70bd 9e2b fb3d f47f 97bd
00000160: 10cf bebd f476 45bd 1527 033e b038 013c
00000170: 10ad a0bc a1e3 063e 5336 233e c0cf 393d
00000180: 7865 3dbe cc9f 20bd 9d97 c3bd a232 db3d
00000190: 8c58 0c3d 6313 1d3e 070a cabd 1473 143d
000001a0: 0456 87bd cc93 05bd 5aa7 a4bd 4c77 7b3d
000001b0: 4fcd 2d3e 6087 583c 1405 34bd 8a1b e33d
000001c0: b8ba 56bd 94b9 6c3d a40f 90bd 0291 36be
000001d0: ea27 a23d a169 0a3e 265c be3d 2cec 67bd
000001e0: 868a 9b3d adcd bcbd 9099 ec3c d869 9cbc
000001f0: 4cd3 74bd d080 38be d928 393e 8fb1 123e
00000200: b708 063e 5099 7dbc b836 0cbd da40 a43d
00000210: 7e59 02be 4057 273d 34d2 433d 0249 bd3d
00000220: 30ba 593c 32c5 45be fe73 b03d ecba 023d
00000230: 6108 453e 6f39 3ebe 799a 063e dd0a aebd
00000240: 0249 06be 5dd7 0d3e 003b ad3b c562 4abe
00000250: 533e fdbd d698 873d 919a 483e 9538 10be
00000260: 9404 203d 99c1 0b3e 5834 d23c d2e4 953d
00000270: 985f 53bd 2066 513c 5e54 d33d 8861 6ebd
00000280: 05c0 05be 24be 93bd a03f 763c 988c 203d
00000290: 78a7 3abe 803e 32bc 0c1f 09be 4049 4c3d
000002a0: a03c a33b 2e5f b93d dfdd 40be aaed 91bd
000002b0: 88c8 49be 0493 85bd ac07 013d ea9c bc3d
000002c0: 0447 4e3d 281f 26be 8a5e 8e3d 7855 74bd
000002d0: 0e9f dc3d 7b3c 30be 50aa f8bc d99a 343e
000002e0: c3ef cfbd 4e48 b23d 5277 ac3d 3eff f03d
000002f0: b4dc 2f3d d8f3 20be 5d96 4cbe 2ec5 823d
00000300: ba83 c23d bfec 2b3e 605e 8f3b b054 fcbc
00000310: 0dc2 dbbd 4af2 c13d 5236 d13d 0836 74bd
00000320: 965c 81bd a8b8 e13c 8207 3abe 74c7 07be
00000330: 4d2a d1bd 8691 8d3d e0a0 683c 0a3a f1bd
00000340: d8c4 3e3d c091 e23c 95b7 2fbe 61ed 173e
00000350: dc41 743d 5050 47bc 74d6 09bd 0084 a63b
00000360: f5a1 263e 1cf5 573d 8329 293e 8c8b 49bd
00000370: 3096 7a3c c0a0 18bb 4f9d 35be a2ca f73d
00000380: da4e f03d 50f4 07bc 5097 64bc 9404 173d
00000390: 12c7 c03d 65c4 33be b817 3bbe a0c3 533c
000003a0: 4eff 963d 82a9 f93d d67b bb3d a2d9 cd3d
000003b0: 06ea 893d abc5 1abe 734a d7bd 006d 83ba
000003c0: f253 0abe e220 ae3d 763b a83d b0b7 3d3c
000003d0: 8ed2 f33d 404c 8b3c 2001 183c c140 163e
000003e0: 0d19 f5bd f8f3 75bd

conv1.bias f4 [10]
-0.18394189 0.16745417 0.118107185 0.003931567 0.1273172 0.056743458 0.16495408 0.046967596
0.15137918 -0.11988437
00000000: 435b 3cbe 1b79 2b3e 2ee2 f13d 60d4 803b
00000010: 715f 023e d46b 683d b9e9 283e 1861 403d
00000020: 2503 1b3e f085 f5bd

conv2.weight f4 [20, 10, 5, 5]
0.053567663 -0.053148422 -0.048773855 -0.04844353 -0.0059317052 0.02515024 0.04276187 -0.038557053
-0.042913288 -0.034469306 -0.038225755 0.05189567 0.047314905 -0.03543985 -0.05953821 -0.03612843
-0.036989197 0.027595066 -0.05783998 -0.061864156 -0.04179072 -0.0066593476 0.018569238 0.029581048
-0.009587243 0.025161311 -0.003633052 0.054938413 -0.0467726 0.04526528 -0.026231792 0.029504932
-0.02176477 -0.029819697 -0.057281245 -0.022535753 -0.036019605 0.028571464 0.061157703 -0.0030107014
0.028038867 0.060476862 -0.0292717 0.014817551 -0.03973355 0.055426672 0.021939293 -0.060938347
0.017547458 0.050763667 -0.02624936 0.04899153 -0.05926458 -0.04124254 -0.056738198 0.04325313
0.0027190372 -0.054509453 -0.025608655 0.0058437735 0.008693323 -0.061333295 0.005436532 0.019935712
-0.058707748 0.0605705 -0.038805857 0.027873054 -0.014462743 -0.015483163 -0.03784912 0.019308187
0.06169799 0.04890123 0.03846948 -0.028761182 -0.0354059 0.00832697 0.021425493 -0.048117615
0.03378351 -0.05782983 -0.03488136 0.051809058 -0.062153317 0.023380727 0.030905113 -0.03185003
-0.021146186 0.05818121 0.03516843 -0.032331444 0.05948087 0.013490804 -0.037575893 -0.038060997
0.020175308 -0.033987053 -0.0051476546 -0.009761397 0.03254001 0.026360102 -0.042769 -0.03886945
-0.03505889 0.05224421 -0.012132417 -0.01330917 -0.021174733 -0.034590516 0.0068389103 0.0073068663
0.06218405 -0.043556236 -0.019806795 0.010838464 -0.03132849 -0.00788236 -0.03603512 0.026733294
-0.005288493 0.062262014 0.011339441 -0.031014197 -0.05349385 0.0013849735 0.043097183 -0.026672587
0.042671427 -0.0147076845 -0.013272271 -0.01762949 0.06131164 0.009207733 -0.03583978 -0.03494273
0.021803983 -0.018474504 -0.0022471137 0.0043157563 0.03859874 -0.017646998 0.04287079 0.035880677
0.053675614 -0.017717212 0.04821389 -0.049540445 0.05622171 0.0046202317 -0.010021236 0.008112542
-0.02529009 -0.015996203 -0.011815492 -0.0034149736 0.05088684 0.039966345 -0.061523743 -0.009155426
-0.004844334 -0.00018737465 -0.03286513 -0.011156134 -0.0065634213 0.018327788 0.05849649 0.051789984
-0.054228097 0.05357083 0.031408235 0.057258166 -0.0131878145 -0.0048470125 0.020261325 -0.027373545
-0.04315083 0.04762707 0.04861115 0.008007087 0.06001153 -0.008076388 0.02268368 -0.062018156
0.026412047 0.016156845 -0.049697354 0.04821889 -0.00450702 -0.029201891 -0.009672258 0.009583011
0.04748787 -0.055104353 -0.055386066 -0.027866557 -0.009769779 -0.034933224 0.0489358 -0.032474477
-0.017148245 0.0012682006 -0.055327296 0.051920146 0.062976554 -0.040438473 0.027678177 -0.0625152
-0.053500794 -0.05470477 -0.010833167 -0.058745317 0.008744724 0.05441942 -0.04459405 -0.034008615
0.031360917 -0.0064595714 0.0035145357 -0.016013678 -0.009663232 -0.013918668 0.009160355 -0.027438022
0.0003863275 -0.009668238 -0.0067830235 -0.023625553 0.042939074 -0.013970811 0.0012907758 -0.02237894
0.03170628 0.0060961917 0.053329796 -0.01916438 -0.050632384 0.028780863 -0.048461135 -0.03854274
-0.06261133 0.0016826242 0.0064586103 -0.055643477 0.027141586 0.02982197 0.06096285 -0.026989244
0.05904071 0.05969347 -0.039353214 0.012521803 0.021931656 0.0062400624 0.05506879 0.0132345185
00000000: c469 5b3d 29b2 59bd 18c7 47bd b96c 46bd
00000010: c05e c2bb e007 ce3c 1227 2f3d 00ee 1dbd
00000020: d8c5 2fbd b02f 0dbd 9c92 1cbd 8e90 543d
00000030: 46cd 413d 6029 11bd 57de 73bd 68fb 13bd
00000040: fc81 17bd 0c0f e23c 9de9 6cbd 4565 7dbd
00000050: bf2c 2bbd a836 dabb 841e 983c f453 f23c
00000060: d013 1dbc 181f ce3c 8018 6ebb 1a07 613d
00000070: a094 3fbd 1668 393d 0ee4 d6bc 54b4 f13c
00000080: 084c b2bc 7048 f4bc bd9f 6abd e69c b8bc
00000090: 4b89 13bd b40e ea3c 8080 7a3d 304f 45bb
000000a0: c4b1 e53c 96b6 773d 34cb efbc 50c5 723c
000000b0: a6bf 22bd 1407 633d 08ba b33c 7d9a 79bd
000000c0: b0bf 8f3c 90ed 4f3d e608 d7bc 58ab 483d
000000d0: 6bbf 72bd f0ed 28bd 5066 68bd 322a 313d
000000e0: e031 323b 4e45 5fbd 3ec9 d1bc 207d bf3b
000000f0: 706e 0e3c 9f38 7bbd f024 b23b 3850 a33c
00000100: 8977 70bd c618 783d e4f2 1ebd 0856 e43c
00000110: 24f5 6cbc 18ad 7dbc ae07 1bbd 342c 9e3c
00000120: 08b7 7c3d a84c 483d 2c92 1d3d 929c ebbc
00000130: c705 11bd d86d 083c 8484 af3c fa16 45bd
00000140: 9460 0a3d f9de 6cbd c2df 0ebd bc35 543d
00000150: 7a94 7ebd f088 bf3c b82c fd3c 2d75 02bd
00000160: c43a adbc 6c4f 6e3d c60c 103d fa6d 04bd
00000170: 36a2 733d 8808 5d3c 2ee9 19bd d9e5 1bbd
00000180: b046 a53c 0236 0bbd a8ad a8bb 44ee 1fbc
00000190: ac48 053d 24f1 d73c 8c2e 2fbd 9335 1fbd
000001a0: e999 0fbd 06fe 553d 0cc7 46bc b40e 5abc
000001b0: a276 adbc c9ae 0dbd f018 e03b 706e ef3b
000001c0: b4b4 7e3d 0668 32bd dc41 a2bc d093 313c
000001d0: 4d52 00bd 0425 01bc 9099 13bd c8ff da3c
000001e0: 184b adbb 7406 7f3d 10c9 393c 7c11 febc
000001f0: 5e1c 5bbd 0088 b53a ac86 303d 7880 dabc
00000200: 3cc8 2e3d 80f8 70bc f073 59bc b86b 90bc
00000210: ea21 7b3d 08dc 163c bccc 12bd 1c20 0fbd
00000220: 449e b23c d857 97bc 5044 13bb 306b 8d3b
00000230: b619 1e3d 7090 90bc 4899 2f3d 9ef7 123d
00000240: f6da 5b3d b023 91bc ee7b 453d ecea 4abd
00000250: bc48 663d 5065 973b 1c30 24bc 78ea 043c
00000260: 2a2d cfbc 780a 83bc c495 41bc c0cd 5fbb
00000270: b86e 503d c0b3 233d 5200 7cbd a400 16bc
00000280: 38bd 9ebb 007a 44b9 969d 06bd 38c8 36bc
00000290: f811 d7bb 2824 963c 049a 6f3d bc21 543d
000002a0: 481e 5ebd 166d 5b3d eca5 003d 8a87 6a3d
000002b0: b411 58bc b0d3 9ebb 14fb a53c 7c3e e0bc
000002c0: edbe 30bd 9a14 433d 7c1c 473d 2830 033c
000002d0: a6ce 753d d452 04bc 20d3 b93c c006 7ebd
000002e0: 145e d83c 5c5b 843c 748f 4bbd 2c81 453d
000002f0: a0af 93bb ce38 efbc 6478 1ebc 1002 1d3c
00000300: a482 423d 1ab5 61bd 80dc 62bd 6848 e4bc
00000310: 6c11 20bc 2416 0fbd e870 483d f503 05bd
00000320: 7a7a 8cbc c039 a63a e09e 62bd 38aa 543d
00000330: daf9 803d d0a2 25bd 58bd e23c f807 80bd
00000340: a623 5bbd 1c12 60bd 987d 31bc ee9e 70bd
00000350: 0846 0f3c e6e6 5e3d 40a8 36bd 9e4c 0bbd
00000360: 4e74 003d d0aa d3bb 2054 663b 1e2f 83bc
00000370: 8852 1ebc 200b 64bc 5015 163c b4c5 e0bc
00000380: 008c ca39 8867 1ebc 2044 debb 608a c1bc
00000390: e2e0 2f3d d4e5 64bc 402f a93a 0a54 b7bc
000003a0: 72de 013d 90c2 c73b 5870 5a3d 9efe 9cbc
000003b0: e763 4fbd d8c5 eb3c 2f7f 46bd fede 1dbd
000003c0: 5e3a 80bd 808b dc3a c0a2 d33b 6aea 63bd
000003d0: 0858 de3c 344d f43c 2eb4 793d 8c18 ddbc
000003e0: acd4 713d 2481 743d d630 21bd 4028 4d3c
000003f0: 04aa b33c 7079 cc3b d08f 613d 98d5 583c

conv2.bias f4 [20]
-0.043524653 -0.006706748 -0.018317632 0.03129933 -0.049987987 0.025748104 0.015563168 0.0216562
0.05947628 0.043288976 -0.025014427 -0.021382105 -0.059533074 -0.05126591 0.061553136 0.035094976
-0.034134492 0.01208704 -0.05221052 0.032901697
00000000: e846 32bd 48c4 dbbb dc0e 96bc ba33 003d
00000010: 34c0 4cbd b0ed d23c a8fc 7e3c 5868 b13c
00000020: 669d 733d c84f 313d 0eeb ccbc 8629 afbc
00000030: f4d8 73bd 34fc 51bd 241f 7c3d c0bf 0f3d
00000040: 9cd0 0bbd b808 463c b3da 55bd eec3 063d

fc1.weight f4 [50, 980]
0.014972992 -0.024442492 0.006496582 0.010133661 -0.031544913 0.02153663 0.020031255 0.011499841
-0.02405299 0.031169035 -0.011910791 0.012433048 -0.025228791 0.0048827305 0.008804522 0.012620453
0.0058341846 -0.0052909125 -0.0029619131 0.01501976 0.0036940686 0.005794715 -0.013399765 -0.012126023
-0.02259722 0.017330091 0.007854335 -0.020027556 0.001821857 0.012565307 -0.017444087 -0.0014721993
0.014520526 -0.012043195 -0.0125338305 0.0013940036 0.010020576 -0.019263044 -0.0011891276 -0.016173853
0.015540633 -0.011671916 0.018467173 -0.026977455 -0.015007736 -0.012927558 -0.0026345663 0.004535012
0.009545334 -0.018933073 0.0022536963 0.023441337 0.008486833 0.027466934 -0.014266124 -0.0069879293
0.024701197 -0.030709766 -0.0024326202 -0.009274984 0.025206793 -0.015148688 -0.02259593 0.011328425
-0.027473532 -0.011319786 0.004772283 -0.021820562 -0.0019377619 0.001214277 -0.024098873 0.02628757
0.0053458884 -0.010820461 0.021527119 0.02680675 -0.024550045 -0.023367159 0.00049193576 -0.015594317
-0.015681291 -0.031295586 0.02540886 0.008391276 0.0166706 -0.009344302 -0.024419686 0.009764671
0.025091093 -0.01099154 0.0027696341 0.01748741 0.01473771 0.025994651 0.0021922402 -0.011408694
-0.013813127 -0.031699665 -0.029735595 0.018771581 -0.02959681 -0.030137815 -0.013312055 -0.02930863
-0.011546366 0.0032126121 0.0031573325 -0.017474882 -0.020050569 -0.02411012 0.014048148 0.02989462
-0.01961097 -0.007855613 -0.0035118572 -0.030116973 -0.029805377 -0.02131511 0.030770823 0.024900082
-0.0054473076 -0.00931124 -0.012025123 -0.0035547111 -0.025999088 0.012568608 0.0059748404 0.011607669
-0.023975262 -0.028939368 0.030461736 0.0240388 -0.014774838 0.023829628 0.0047787353 0.00594721
0.022011165 -0.027247576 0.02314886 -0.013772877 0.028345201 0.0008983612 -0.013960181 -0.00068803504
-0.025600025 -0.020678882 0.01070774 0.029748518 -0.001412902 -0.02356162 -0.017644651 -0.022623036
0.02201498 -0.0265565 0.023376886 -0.027058084 -0.030565869 0.025689866 -0.031043286 -0.010949537
0.018363673 -0.00216984 -0.027970286 0.025500476 0.026663065 0.00273484 0.02507957 0.006357126
0.014357716 0.0011494346 0.027402733 0.013805874 0.0050062127 9.762123e-05 0.030284077 -0.031734582
-0.028579185 0.023556497 0.005625289 -0.016263733 0.016571537 -0.029221123 0.029424205 -0.002173394
0.012540013 0.0067493655 -0.0059440695 0.013289034 -0.013858505 0.030840024 -0.027629862 -0.024394933
-0.027331283 -0.019803258 -0.0072000995 -0.01622208 0.028945241 0.01346413 0.0313185 0.001698181
-0.011911767 -0.005755322 -0.025089772 -0.01698306 0.0079662725 -0.028681826 -0.0027397387 -0.019822614
0.009442378 0.006869912 -0.011298571 -0.026326943 -0.024255075 -0.0016769134 -0.0081432015 -0.013001967
-0.004801996 -0.008314656 -0.01614203 -0.030418575 0.018704973 0.022352826 0.002820257 -0.026294464
0.015963934 0.029314362 0.016087767 0.024777155 -0.01572426 0.014084853 -0.0068883915 -0.023328613
0.022512786 -0.00717178 -0.020361496 -0.020429403 0.031523705 -0.018455595 0.017146707 0.01567772
-0.012497965 -0.00926818 0.031527385 0.002712626 -0.023980156 -0.029537575 -0.025413776 -0.011280077
-0.026298795 0.030643344 0.009238906 0.017554518 -0.0044553615 0.008173116 0.02384032 0.009561051
00000000: 4851 753c 9f3b c8bc 48e1 d43b a807 263c
00000010: 3d35 01bd 966d b03c 9618 a43c d469 3c3c
00000020: c70a c5bc 3456 ff3c 7a25 43bc fcb3 4b3c
00000030: 9cac cebc 50ff 9f3b d840 103c 04c6 4e3c
00000040: b02c bf3b 645f adbb a81c 42bb 7015 763c
00000050: 3018 723b 98e1 bd3b b08a 5bbc 3aac 46bc
00000060: ce1d b9bc d6f7 8d3c 78af 003c d410 a4bc
00000070: 60cb ee3a b8de 4d3c e7e6 8ebc d0f6 c0ba
00000080: 80e7 6d3c d250 45bc b25a 4dbc 00b7 b63a
00000090: 582d 243c 88cd 9dbc 80dc 9bba 077f 84bc
000000a0: 249e 7e3c 903b 3fbc 7848 973c d3ff dcbc
000000b0: 02e3 75bc 1cce 53bc b0a8 2cbb 709a 943b
000000c0: 0864 1c3c 8819 9bbc c0b2 133b 0c08 c03c
000000d0: 5c0c 0b3c 5602 e13c 76bc 69bc 00fb e4bb
000000e0: 2a5a ca3c 0c93 fbbc 986c 1fbb 1af6 17bc
000000f0: 7a7e ce3c 3432 78bc 1a1b b9bc dc9a 393c
00000100: 2c10 e1bc a076 39bc d060 9c3b 09c1 b2bc
00000110: 80fc fdba 6028 9f3a 006b c5bc 0859 d73c
00000120: 902c af3b 4e48 31bc a459 b03c d499 db3c
00000130: 2d1d c9bc 7c6c bfbc 40f5 003a 4e7f 7fbc
00000140: 0d76 80bc cd2f 00bd 3e26 d03c 907b 093c
00000150: c890 883c d818 19bc cb0b c8bc 00fc 1f3c
00000160: d68b cd3c dc15 34bc c082 353b c241 8f3c
00000170: 7076 713c bcf2 d43c b0ab 0f3b 88eb 3abc
00000180: 7450 62bc 82d7 01bd 1098 f3bc dcc6 993c
00000190: 0275 f2bc 94e3 f6bc ce1a 5abc a718 f0bc
000001a0: f82c 3dbc b08a 523b 40eb 4e3b 7c27 8fbc
000001b0: 1741 a4bc 9682 c5bc 342a 663c 90e5 f43c
000001c0: 2fa7 a0bc d4b4 00bc 3027 66bb dfb7 f6bc
000001d0: 682a f4bc 079d aebc 1813 fc3c 42fb cb3c
000001e0: 547f b2bb 2c8e 18bc 0605 45bc 28f6 68bb
000001f0: 0afc d4bc 90ec 4d3c 98c8 c33b 182e 3e3c
00000200: c567 c4bc 4112 edbc e48a f93c 04ed c43c
00000210: 2a12 72bc 5a36 c33c f096 9c3b d0e0 c23b
00000220: c250 b43c 4f36 dfbc aea2 bd3c a2a7 61bc
00000230: 3234 e83c 0080 6b3a 3eb9 64bc 405d 34ba
00000240: 25b7 d1bc c266 a9bc 846f 2f3c 2ab3 f33c
00000250: 2031 b9ba 4c04 c1bc 848b 90bc f253 b9bc
00000260: c258 b43c 048d d9bc e280 bf3c eaa8 ddbc
00000270: 4665 fabc 8e73 d23c 7d4e febc b065 33bc
00000280: 6a6f 963c e033 0ebb f121 e5bc 60e6 d03c
00000290: 806c da3c 003b 333b ac73 cd3c 704f d03b
000002a0: a03c 6b3c a0a8 963a b27b e03c 0832 623c
000002b0: 280b a43b 00ba cc38 5016 f83c 1ffc 01bd
000002c0: e51e eabc 8ef9 c03c 5854 b83b 853b 85bc
000002d0: 08c1 873c 2361 efbc 080b f13c 806f 0ebb
000002e0: a074 4d3c c829 dd3b 78c6 c2bb 40ba 593c
000002f0: c80e 63bc 38a4 fc3c 0558 e2bc e2d7 c7bc
00000300: dbe5 dfbc 713a a2bc d0ee ebbb 2be4 84bc
00000310: 921e ed3c a898 5c3c d447 003d 8095 de3a
00000320: 9229 43bc 2497 bcbb 1189 cdbc 0f20 8bbc
00000330: f884 023c 26f6 eabc 308d 33bb 0963 a2bc
00000340: 34b4 1a3c 001d e13b a41d 39bc 9aab d7bc
00000350: 94b2 c6bc e0cb dbba 106b 05bc 3406 55bc
00000360: 105a 9dbb 323a 08bc 4a3c 84bc 6030 f9bc
00000370: 2c3b 993c 461d b73c 10d4 383b 7d67 d7bc
00000380: ccc6 823c ac24 f03c 7eca 833c 76f9 ca3c
00000390: 2ad0 80bc 28c4 663c 04b8 e1bb a61b bfbc
000003a0: bc6c b83c 4001 ebbb 27cd a6bc 905b a7bc
000003b0: 001f 013d 3030 97bc 4077 8c3c 906e 803c
000003c0: 44c4 4cbc 90d9 17bc dc22 013d 50c6 313b
000003d0: 0872 c4bc c9f8 f1bc 8d30 d0bc 12d0 38bc
000003e0: 9270 d7bc c007 fb3c c85e 173c 7ece 8f3c
000003f0: 48fe 91bb 88e8 053c c64c c33c f4a5 1c3c

fc1.bias f4 [50]
0.025428254 0.010620538 -0.017019266 -0.027693981 0.013831876 0.011131689 0.02600364 -0.004315287
-0.005409524 0.030913323 -0.0015745405 0.008509129 -0.01780253 -0.020932497 0.028212983 0.008805089
0.019562278 -0.008405382 -0.029696647 -0.0128509365 0.010515355 -0.021816902 0.026582088 0.0044074133
0.022038423 -0.013693081 0.030857734 0.014492024 0.02605066 -0.026671978 0.006999556 -0.008028245
-0.0077470206 -0.020318862 0.0032139197 0.008452635 0.023268897 0.028243873 -0.02711593 0.015293244
-0.0030173995 0.004823301 -0.011813737 -0.02135934 0.016872317 0.030802079 -0.02685448 -0.0037807897
0.022003379 -0.019531846
00000000: ea4e d03c c401 2e3c fd6b 8bbc 7dde e2bc
00000010: 189f 623c b061 363c 9605 d53c 4067 8dbb
00000020: 6042 b1bb f03d fd3c d060 ceba e069 0b3c
00000030: 9dd6 91bc a17a abbc ea1e e73c 3843 103c
00000040: 1241 a03c bab6 09bc 6246 f3bc bc8c 52bc
00000050: 9848 2c3c 5cb9 b2bc aec2 d93c 106c 903b
00000060: ec89 b43c f258 60bc 5cc9 fc3c f46f 6d3c
00000070: 3268 d53c 317f dabc 885c e53b e688 03bc
00000080: b8da fdbb be73 a6bc a0a0 523b ec7c 0a3c
00000090: 6a9e be3c b25f e73c 3a22 debc 8490 7a3c
000000a0: 90bf 45bb c80c 9e3b 688e 41bc c8f9 aebc
000000b0: d037 8a3c a454 fc3c edfd dbbc 20c7 77bb
000000c0: 6e40 b43c 4001 a0bc

fc2.weight f4 [10, 50]
0.055341616 0.10561761 0.041117474 -0.08273064 0.078978404 0.090418935 0.039153114 -0.0065460056
-0.0008111745 -0.092522785 -0.033936054 0.106716156 -0.0729582 0.06489991 0.07337637 0.0024056584
0.11730145 -0.04288555 0.06925264 0.08287422 -0.09297376 -0.05817739 0.093015835 -0.0972403
-0.05217042 0.1310017 -0.028173655 -0.045768887 0.030314118 0.0276355 0.019915953 0.09239708
-0.04415085 0.12086435 0.096876025 0.12982382 -0.054081134 -0.118220806 -0.06755366 0.08516109
-0.094090246 -0.033551537 -0.090624675 -0.07344989 0.026536614 0.083654866 -0.0022445917 0.045941845
-0.039258912 0.006925836 0.10256599 0.01794894 -0.0626459 0.10233264 -0.1367244 0.036830977
0.031839162 -0.037981883 0.0661477 -0.019272707 0.091985 -0.14077726 0.024796918 -0.13130814
-0.042144105 0.123327896 -0.07788102 0.13989638 -0.109605834 0.016138285 -0.00082434714 0.098715305
0.05554591 -0.007336855 0.060577482 -0.10561745 -0.030050702 0.0057512075 -0.1170675 0.14136095
-0.00064073503 -0.095396966 -0.008604437 -0.011812478 0.13707118 0.09663582 0.05041647 -0.11339833
0.12464954 -0.06760279 0.032385424 0.048226282 -0.09836444 0.13056903 -0.009829655 0.12100719
0.10394019 -0.02497916 0.061573282 0.02573429 -0.12300444 -0.030884944 -0.09356228 0.061983064
0.12192111 -0.103168726 -0.03362 0.13061853 0.042737693 0.021405965 0.073946014 0.09398015
-0.014108658 0.14020173 -0.015670314 -0.14023678 0.011138588 -0.030553244 0.09254959 0.045838192
0.0053114146 0.09563036 -0.09831754 0.08844128 -0.06424212 0.0024909675 -0.13163918 0.053056717
0.036928013 0.0053230673 0.079444885 -0.032563195 0.057411388 -0.049877547 -0.0098516345 -0.034112737
-0.052291967 0.036543205 -0.12878643 0.13273714 0.082404286 -0.122250445 -0.06156704 -0.08159527
0.108429015 0.034445286 0.120998755 0.13854791 -0.05391688 0.10349618 -0.087602764 0.015719086
0.07584345 0.07071878 0.005745426 0.12006168 -0.13946605 0.07722317 -0.06051635 -0.06958369
0.05621478 -0.13909993 -0.060345456 0.041714728 0.03955005 -0.08466883 0.10689232 -0.030466713
0.08946231 0.03348103 -0.10193506 0.004186496 -0.122151874 -0.027897358 0.05101706 -0.0097350925
-0.06759915 -0.014795393 -0.073083736 -0.010057136 -0.032983974 -0.012509167 -0.06535405 -0.018940471
-0.08674547 -0.116292074 -0.06127189 0.13135831 0.0048292577 0.13257785 0.113341406 0.080416724
-0.10715987 -0.08600527 0.086969435 0.03857012 -0.12977289 -0.109148845 -0.0661896 0.086074814
0.015489593 -0.110453725 0.0663975 0.056342974 -0.086972706 0.08094871 0.09935576 -0.1196893
0.07910524 -0.085764185 -0.041871935 0.13229956 -0.037723087 0.106113166 -0.105635196 0.098692745
0.026013002 0.034180507 -0.098194525 0.028473943 0.0149155855 -0.10353826 -0.040871635 -0.009574741
0.0036909133 -0.07023422 0.13715123 -0.0018547624 0.05558397 -0.060909107 0.09350011 -0.05189591
0.038007975 -0.07700739 -0.04400202 -0.0027594715 0.118883476 0.04888445 0.002788633 0.02475369
-0.12675805 -0.04989098 -0.13741928 -0.14052658 0.08320357 -0.085388646 -0.085994765 -0.11575211
-0.023227803 0.016743273 0.108960584 -0.07209912 -0.12070517 -0.11989665 0.11935456 -0.1145315
00000000: e4ad 623d 0c4e d83d cc6a 283d af6e a9bd
00000010: 6ebf a13d 902d b93d 045f 203d e07f d6bb
00000020: 00a5 54ba 967c bdbd 8800 0bbd 008e da3d
00000030: 1c6b 95bd 3eea 843d 5a46 963d 40a8 1d3b
00000040: be3b f03d c2a8 2fbd 54d4 8d3d f6b9 a93d
00000050: 0769 bebd 6a4b 6ebd 167f be3d ec25 c7bd
00000060: a6b0 55bd 4f25 063e 70cc e6bc 2878 3bbd
00000070: 5055 f83c d863 e23c c826 a33c ae3a bd3d
00000080: 86d7 34bd ba87 f73d f066 c63d 89f0 043e
00000090: 2e84 5dbd c01d f2bd 9359 8abd f068 ae3d
000000a0: 63b2 c0bd 566d 09bd 6e99 b9bd e56c 96bd
000000b0: 5063 d93c 3e53 ab3d 001a 13bb 842d 3c3d
000000c0: f4cd 20bd 20f2 e23b 1e0e d23d a809 933c
000000d0: 7e4c 80bd c693 d13d 7b01 0cbe 14dc 163d
000000e0: c869 023d e492 1bbd 7278 873d cce1 9dbc
000000f0: a262 bc3d ea27 10be e822 cb3c a475 06be
00000100: 4c9f 2cbd 5693 fc3d 1680 9fbd ff40 0f3e
00000110: 0679 e0bd 7034 843c 0019 58ba 402b ca3d
00000120: 1c84 633d 006a f0bb 1820 783d f64d d8bd
00000130: e42c f6bc a074 bc3b 16c1 efbd edc0 103e
00000140: 00f7 27ba 7c5f c3bd a0f9 0cbc 2089 41bc
00000150: 635c 0c3e 00e9 c53d 8081 4e3d 623d e8bd
00000160: 4248 ff3d 5573 8abd 94a6 043d ec88 453d
00000170: 4c73 c9bd e3b3 053e 900c 21bc 9ed2 f73d
00000180: 98de d43d 18a1 ccbc 4434 7c3d b8d0 d23c
00000190: c0e9 fbbd 6c02 fdbc 959d bfbd f4e1 7d3d
000001a0: c6b1 f93d 204a d3bd 20b5 09bd ddc0 053e
000001b0: b80d 2f3d 905b af3c 0271 973d aa78 c03d
000001c0: 0028 67bc 0b91 0f3e 085f 80bc 3b9a 0fbe
000001d0: a07e 363c cc4a fabc a48a bd3d d4c0 3b3d
000001e0: 600b ae3b dad9 c33d b55a c9bd b420 b53d
000001f0: 5f91 83bd 803f 233b 6ccc 06be 0052 593d
00000200: d441 173d 206d ae3b 00b4 a23d fc60 05bd
00000210: 3428 6b3d 664c 4cbd c068 21bc ccb9 0bbd
00000220: 1a30 56bd 54ae 153d 97e0 03be 3fec 073e
00000230: 94c3 a83d 715e fabd b82d 7cbd 6c1b a7bd
00000240: 0810 de3d 8016 0d3d 32ce f73d 81df 0d3e
00000250: f2d7 5cbd cef5 d33d 1469 b3bd 50c5 803c
00000260: d053 9b3d 02d5 903d 2044 bc3b e6e2 f53d
00000270: 30d0 0ebe 2e27 9e3d fedf 77bd e581 8ebd
00000280: 7841 663d 3670 0ebe cc2c 77bd 10dd 2a3d
00000290: 3cff 213d da66 adbd 5cea da3d 5495 f9bc
000002a0: 0438 b73d 6823 093d 54c3 d0bd e02e 893b
000002b0: c32a fabd 0089 e4bc 44f7 503d f07f 1fbc
000002c0: 6c71 8abd 6068 72bc edac 95bd b0c6 24bc
000002d0: 341a 07bd 40f3 4cbc 58d8 85bd 0c29 9bbc
000002e0: 9ca7 b1bd 8a2a eebd 3cf8 7abd cb82 063e
000002f0: c03e 9e3b 7dc2 073e 8a1f e83d 86b1 a43d
00000300: a276 dbbd 8823 b0bd 081d b23d b4fb 1d3d
00000310: 2fe3 04be 6e89 dfbd 6a8e 87bd fe47 b03d
00000320: 10c8 7d3c 9035 e2bd 6afb 873d e4c7 663d
00000330: bf1e b2bd 70c8 a53d 087b cb3d aa1f f5bd
00000340: ee01 a23d 22a5 afbd e881 2bbd 8979 073e
00000350: 8683 1abd dc51 d93d 4457 d8bd 6c1f ca3d
00000360: 3819 d53c dc00 0c3d 361a c9bd 3042 e93c
00000370: 8060 743c de0b d4bd 0469 27bd 60df 1cbc
00000380: 40e3 713b f5d6 8fbd 5f71 0c3e 801b f3ba
00000390: 04ac 633d d47b 79bd fc7c bf3d ce90 54bd
000003a0: 40ae 1b3d 0db6 9dbd 763b 34bd 40d8 34bb
000003b0: 2e79 f33d 103b 483d 80c1 363b 40c8 ca3c
000003c0: ddcc 01be 7c5a 4cbd a4b7 0cbe 33e6 0fbe
000003d0: a266 aa3d 3ee0 aebd 061e b0bd 710f edbd
000003e0: 3c48 bebc 3029 893c ba26 df3d b4a8 93bd
000003f0: 4634 f7bd 608c f5bd 2a70 f43d 7e8f eabd

fc2.bias f4 [10]
-0.012203693 -0.080485836 0.08659017 0.09600294 -0.090777084 0.010308698 0.0574999 0.057461098
0.04374823 -0.034316473
00000000: 00f2 47bc c2d5 a4bd 3056 b13d 309d c43d
00000010: 56e9 b9bd d0e5 283c 0485 6b3d 545c 6b3d
00000020: 5831 333d 6e8f 0cbd
